…
2024-06-03 04:26:00 - root - INFO: -           start_dual_prediction = 100
2024-06-03 04:26:00 - root - INFO: -           batch_size = 256
2024-06-03 04:26:00 - root - INFO: -           epoch = 500
2024-06-03 04:26:00 - root - INFO: -           lr = 0.0001
2024-06-03 04:26:00 - root - INFO: -           alpha = 9
2024-06-03 04:26:00 - root - INFO: -           lambda1 = 0.1
2024-06-03 04:26:00 - root - INFO: -           lambda2 = 0.1
2024-06-03 04:26:00 - root - INFO: - print_num = 100
2024-06-03 04:26:00 - root - INFO: - dataset = Caltech101-20
2024-06-03 04:26:03 - root - INFO: - Autoencoder(
  (_encoder): Sequential(
    (0): Linear(in_features=1984, out_features=1024, bias=True)
    (1): BatchNorm1d(1024, eps=1e-05, momentum=0.1, affine=True, track_running_stats=True)
    (2): ReLU()
    (3): Linear(in_features=1024, out_features=1024, bias=True)
    (4): BatchNorm1d(1024, eps=1e-05, momentum=0.1, affine=True, track_running_stats=True)
    (5): ReLU()
    (6): Linear(in_features=1024, out_features=1024, bias=True)
    (7): BatchNorm1d(1024, eps=1e-05, momentum=0.1, affine=True, track_running_stats=True)
    (8): ReLU()
    (9): Linear(in_features=1024, out_features=128, bias=True)
    (10): Softmax(dim=1)
  )
  (_decoder): Sequential(
    (0): Linear(in_features=128, out_features=1024, bias=True)
    (1): BatchNorm1d(1024, eps=1e-05, momentum=0.1, affine=True, track_running_stats=True)
    (2): ReLU()
    (3): Linear(in_features=1024, out_features=1024, bias=True)
    (4): BatchNorm1d(1024, eps=1e-05, momentum=0.1, affine=True, track_running_stats=True)
    (5): ReLU()
    (6): Linear(in_features=1024, out_features=1024, bias=True)
    (7): BatchNorm1d(1024, eps=1e-05, momentum=0.1, affine=True, track_running_stats=True)
    (8): ReLU()
    (9): Linear(in_features=1024, out_features=1984, bias=True)
    (10): BatchNorm1d(1984, eps=1e-05, momentum=0.1, affine=True, track_running_stats=True)
    (11): ReLU()
  )
)
2024-06-03 04:26:03 - root - INFO: - Prediction(
  (_encoder): Sequential(
    (0): Linear(in_features=128, out_features=128, bias=True)
    (1): BatchNorm1d(128, eps=1e-05, momentum=0.1, affine=True, track_running_stats=True)
    (2): ReLU()
    (3): Linear(in_features=128, out_features=256, bias=True)
    (4): BatchNorm1d(256, eps=1e-05, momentum=0.1, affine=True, track_running_stats=True)
    (5): ReLU()
    (6): Linear(in_features=256, out_features=128, bias=True)
    (7): BatchNorm1d(128, eps=1e-05, momentum=0.1, affine=True, track_running_stats=True)
    (8): ReLU()
  )
  (_decoder): Sequential(
    (0): Linear(in_features=128, out_features=256, bias=True)
    (1): BatchNorm1d(256, eps=1e-05, momentum=0.1, affine=True, track_running_stats=True)
    (2): ReLU()
    (3): Linear(in_features=256, out_features=128, bias=True)
    (4): BatchNorm1d(128, eps=1e-05, momentum=0.1, affine=True, track_running_stats=True)
    (5): ReLU()
    (6): Linear(in_features=128, out_features=128, bias=True)
    (7): Softmax(dim=1)
  )
)
2024-06-03 04:26:03 - root - INFO: - Adam (
Parameter Group 0
    amsgrad: False
    betas: (0.9, 0.999)
    capturable: False
    differentiable: False
    eps: 1e-08
    foreach: None
    fused: None
    lr: 0.0001
    maximize: False
    weight_decay: 0
)
2024-06-03 04:29:41 - root - INFO: - Epoch : 100/500 ===> Reconstruction loss = 0.2798===> Reconstruction loss = 0.0308 ===> Dual prediction loss = 0.0173  ===> Contrastive loss = -4.4796e+02 ===> Loss = -4.4793e+02
…
